mobilenet_v2_ai_real.onnx (onnx, 251495 bytes, 13 tensors)

classifier.1.bias f4 [2]
00000000: c264 123c f1ef f03b
0.008935155 0.007352822

features.0.0.weight_bias f4 [32]
00000000: ca5f b2bd fafa 0f3f 1983 b33e 2d09 913e
00000010: 0234 753f e2cd 2a3f 6d50 fd3e 1039 173f
00000020: 328f 1e3f 4a90 423a f48b a3be 9e26 783f
00000030: bffd e43e 4293 b0be dd89 4d3a a6b9 f23b
00000040: 581f 25bd c936 97bc 2d0f b23e 04bd 7b3d
00000050: f6b0 98be 8f58 f93e 3f26 c63e 39b7 7abc
00000060: 8e64 fdbe 55e3 023f 91bd aabe 9633 1f3f
00000070: 6dc6 f0bd 4cb8 bcbd 0f3a da3e a719 913e
-0.087096766 0.56242335 0.35060957 0.28327313 0.9578248 0.667204 0.49475423 0.59071445
0.6193725 0.00074220134 -0.31942713 0.96933925 0.44724843 -0.3448735 0.00078406726 0.007407385
-0.040313095 -0.01845874 0.34777203 0.061459556 -0.2982251 0.48700377 0.38701054 -0.015302473
-0.4949078 0.5112813 -0.33347753 0.6218809 -0.11756597 -0.09214839 0.4262242 0.28339884

features.1.conv.0.0.weight_bias f4 [32]
00000000: 800d 44bc fa4c 703f c095 a23c c155 d93e
00000010: 32a3 7e3e 8b5c 5c3f 8203 623f 252f d43e
00000020: 7240 7240 96fb 98bb 081e af3e d2ed 9b3e
00000030: 3283 4e3f 5221 d1be 83d1 b9bb a341 b5bb
00000040: 8d72 083c c42c 5f3c 9017 823d eb0d c83d
00000050: bd2a 90be 55ee c33f ddb2 643f 9595 a13a
00000060: 855b 423f 8c28 80be b464 b7be e22a 673f
00000070: 9c59 2b3f 3ad9 a43e d695 793f 06e7 5ebe
-0.011966109 0.93867457 0.019846797 0.42448238 0.24866942 0.8607871 0.882866 0.41442218
3.7851834 -0.0046686633 0.342026 0.3045488 0.8066894 -0.40845734 -0.0056707277 -0.005531506
0.008328092 0.013621513 0.063521504 0.0976828 -0.28157607 1.5307108 0.89335424 0.0012327904
0.759209 -0.25030935 -0.35819018 0.9029981 0.6693361 0.3219698 0.97494256 -0.21767816

features.1.conv.1.weight_bias f4 [16]
00000000: cff3 09c0 2eac d93e c66a a2bf 4991 813f
00000010: 90c5 dbbd 0383 e7be 1b75 21bf c3bd d8bf
00000020: 1801 55bf f583 cfbf c433 d53f 917d ddbe
00000030: bf99 34bf 6ce4 27be bbb4 cb3f 9028 b13f
-2.155506 0.42514175 -1.2688835 1.0122463 -0.107310414 -0.45217142 -0.63069314 -1.6932911
-0.83204794 -1.6212145 1.6656423 -0.43259862 -0.705471 -0.1639573 1.591453 1.3840504

features.2.conv.2.weight_bias f4 [24]
00000000: 599d 96bf 1892 f43e 116a 34bf 221c 44be
00000010: 8e82 c7bd b706 36bf 74b4 d4be c0a8 2c3e
00000020: 1032 38be e071 9d3c a1f6 b13c 2991 c73e
00000030: 05aa 063e 764b e13f d5f1 a63f 6ad3 533f
00000040: e65c 483e aa98 5fbe 1177 f2be b9e9 013e
00000050: 4dae a83e d3ee 8e3e 577a 0a3e 2871 033e
-1.1766769 0.4776771 -0.70474344 -0.19151357 -0.09741698 -0.71103996 -0.41543925 0.16861248
-0.17987847 0.019219339 0.021724047 0.38977936 0.13150795 1.7601154 1.3042551 0.8274447
0.19566688 -0.2183558 -0.47356465 0.12686814 0.3294548 0.27916583 0.13523231 0.12836134

features.3.conv.2.weight_bias f4 [24]
00000000: 86e0 b8bf 8a79 83bf 923b ae3d 7e38 32be
00000010: 6143 a0bf 3707 8c3f 4480 403f 1788 ba3d
00000020: 7abb b93d 47f8 a1bd 476d 10c0 8b13 20bf
00000030: a508 163f 8f93 97bf 2ead 0c3e 47b6 afbe
00000040: 10a8 b93e 7499 0cbf 5c04 02bf 09ae bc3e
00000050: 31f5 753f 3cb4 4e3f 5fde 03c0 786c a13f
-1.4443519 -1.0271466 0.08507456 -0.17404363 -1.2520562 1.0939702 0.7519572 0.09107988
0.090689614 -0.07908683 -2.2566698 -0.6252982 0.5860694 -1.1841906 0.13737938 -0.34318754
0.36261034 -0.5492165 -0.507879 0.36851528 0.9607726 0.80743766 -2.0604475 1.2611227

features.4.conv.2.weight_bias f4 [32]
00000000: d977 5a3f de2c 113f e322 16bf 66f9 373f
00000010: 8fac 0b3e f2d3 c4bf 9da6 81be e6fd 3fbe
00000020: f51d 0d3d 73d7 d0bf 3d36 3d3f 0527 a83f
00000030: 2df6 1d3f faa1 5f3f 8887 3d3d 403e 04bf
00000040: 9560 313f 32fe d3bd 18ec 103f a430 99be
00000050: 513b 1cbe 3f97 cd3e a550 0cbf b062 d03e
00000060: 39c7 41bf 6937 803f 9f9a 2dbe d9f1 96bf
00000070: f89a 873e 1192 71bf 24ae 1ebf e3a6 2dbe
0.85339123 0.56709087 -0.5864698 0.71864927 0.13640045 -1.537718 -0.25322428 -0.18749198
0.034452397 -1.631575 0.73910886 1.3136908 0.6170376 0.8735653 0.04627183 -0.51657486
0.69288 -0.10351218 0.5661025 -0.29919922 -0.15257002 0.40154454 -0.54810554 0.40700293
-0.75694615 1.001691 -0.16953515 -1.1792556 0.2648542 -0.94363505 -0.6198447 -0.16958193

features.5.conv.2.weight_bias f4 [32]
00000000: 373b 933d 1b19 623e 8c71 cabe 55b6 2c3f
00000010: 0e5d 85be 5a30 63bd 8916 2a3e 9835 bfbe
00000020: 5d50 05bf 943d bd3d 42a9 d63d 755c 50be
00000030: 5e32 d7be d35e 0bbf 7a45 943c bf9d bbbe
00000040: 9cc0 cb3e 2ee9 47be 820e 163e 1cef f03e
00000050: 5959 4c3f 1006 bbbe c985 5e3e dcb8 05bf
00000060: ac36 cb3d 0be9 1fbe 0d5b dfbe 7384 043f
00000070: 8013 073f 1345 33be f170 6abe bb11 363e
0.07189029 0.2207989 -0.39539754 0.67465717 -0.26047558 -0.055466034 0.16610159 -0.37345576
-0.5207575 0.09240261 0.10481502 -0.2034777 -0.42030615 -0.54441565 0.018099535 -0.36643788
0.39795387 -0.19522545 0.14653972 0.47057426 0.79823834 -0.36528063 0.21730722 -0.522352
0.09922537 -0.15616243 -0.43624154 0.517646 0.5276413 -0.17506818 -0.22894646 0.17780201

features.6.conv.2.weight_bias f4 [32]
00000000: 4644 c6be 0d44 653d 675a 92be 0b12 673e
00000010: 8bb0 843e e1eb 8f3e c532 c7be fa5b 723e
00000020: 8159 86bc 5022 163f aa04 613e 7256 283e
00000030: 240a 343e 3119 853e 87c0 883e a73c 07bf
00000040: 3c55 0ebf d030 02bf 30d4 c13d 6d96 4a3f
00000050: 12be a33e 0b65 4b3e fdb2 6cbd 49ce 573e
00000060: 6cb8 cabd 9d6b 23bf 9e12 bcbe b336 ca3e
00000070: 8532 abbe a59a 02bf 53cb f43e d7cd 9abe
-0.38723963 0.0559731 -0.28584597 0.22565477 0.25915942 0.2810965 -0.38905922 0.23667899
-0.0164001 0.58646107 0.21974435 0.16439226 0.17581993 0.25995782 0.26709387 -0.52826923
-0.5559881 -0.5085573 0.094643 0.7913578 0.3198095 0.19862764 -0.057787884 0.21074785
-0.09898457 -0.6383608 -0.36732954 0.39494857 -0.3343698 -0.5101722 0.47811374 -0.30235168

features.7.conv.2.weight_bias f4 [64]
00000000: c99c f2be aae1 17be ae71 4dbf 1c4b 94bd
00000010: 8995 14bf 68c0 bfbd 6a81 f73d bf77 66bf
00000020: 81ca 15bd 98f3 ea3f d32f acbf ad68 8f3f
00000030: fd7e 7a3d 937c f2be dacb d13e 9132 f13d
00000040: 003a 63be 06e4 98be 1c7d 20be 6841 97be
00000050: 5ed4 13bd a8c5 5fbf 2593 2b3f aaf6 db3e
00000060: cbfd 043e 3634 13be b263 3c3f e8eb 3dbf
00000070: dad2 3f3e b8f9 81bf 1a89 1c3e 19cb 873e
00000080: 2ada 853f eee9 f23e 16a5 9f3e d65b c4bd
00000090: 6bab cebd 3855 f4bc de78 8abf 7278 1fbe
000000a0: 4f91 843f e296 553f bf7b 38bf 196f 58bf
000000b0: e709 3abf ec84 38bc 56a0 593e cfee c6be
000000c0: 161a 383f 79fb c73e 93e8 093f ce2a 403e
000000d0: 50f1 a93f 144b 073f fd09 633f e198 1ebb
000000e0: bd36 693f 1d33 88bf c633 5a3e 265b 8ebe
000000f0: ead1 78be 1f56 073f 990d 853f ad0f 36be
-0.47385243 -0.14832178 -0.80251586 -0.072408885 -0.5804067 -0.093628705 0.12085231 -0.9002647
-0.036570076 1.8355589 -1.3452095 1.120382 0.06115626 -0.47360668 0.4097584 0.11777223
-0.22190094 -0.29861468 -0.15672725 -0.29542089 -0.0360912 -0.87410975 0.670214 0.42961627
0.1298744 -0.14375386 0.7358962 -0.7418809 0.18732777 -1.0154333 0.15286675 0.2652214
1.0457203 0.474441 0.31180638 -0.09587829 -0.10091289 -0.029825792 -1.0818136 -0.1557329
1.0356845 0.83433354 -0.7206382 -0.8454452 -0.7267136 -0.01126216 0.2125257 -0.38854071
0.71914804 0.39059046 0.53870505 0.18766329 1.3276768 0.52848935 0.88687116 -0.002420001
0.9109915 -1.0640599 0.21308812 -0.27803916 -0.24298826 0.52865785 1.0394775 -0.17779417

features.8.conv.2.weight_bias f4 [64]
00000000: fda7 b6be 57fe 2ebe ee72 cf3d d3a2 873e
00000010: 23cb 1cbe 619d e33b 77de 693c a65c 09bf
00000020: 7310 9abe 1e8e 243c 0fe0 8bbe b031 053e
00000030: 2d88 c33d 1c05 c0bd 96a3 9a3d d592 8e3e
00000040: 64a5 893e 55f4 a73d 4cc0 aa3e 27da 89be
00000050: 2ecd 36be c139 05bf 18e5 03bc 4ec8 043f
00000060: 57f2 f43d 9096 68be ea44 843f 6440 2cbe
00000070: 17f0 4f3e 8954 043e e001 db3e 2f56 383f
00000080: 718c f3bd 1d2a 163e 7385 9bbf 9402 07bf
00000090: 8397 133f 9867 2ebd 4cc6 023e d402 8ebe
000000a0: bddb f5bd 6631 b0be b771 953e 6817 afbd
000000b0: 60de 093f fe5c 1a3e 8327 eb3b 5d2d 3f3f
000000c0: 7ff4 3d3e d976 2a3e 9f11 e8bd f90b 953e
000000d0: 24a5 1a3e 9fb4 5abe a676 babe 69f4 e13e
000000e0: a03f c93e de3d a3bd 84ab 913e 8b53 6c3f
000000f0: 60f2 563f 674c 25bf f4db 17bc cd15 93be
-0.3567504 -0.1708921 0.10129343 0.26491413 -0.15311866 0.0069462513 0.014274231 -0.53656995
-0.30090675 0.010043649 -0.2731938 0.13007236 0.09547458 -0.093759745 0.07550733 0.278464
0.26883996 0.082008995 0.33349836 -0.2692425 -0.17851707 -0.5204125 -0.008050226 0.5186814
0.11960285 -0.22713685 1.0333531 -0.16821438 0.20306431 0.12922873 0.42774868 0.72006506
-0.118920214 0.14664502 -1.21501 -0.5273831 0.57653064 -0.042579263 0.12770957 -0.27736533
-0.120048024 -0.34412688 0.2918832 -0.08549386 0.5385494 0.15074536 0.007176341 0.74678594
0.18550299 0.166469 -0.11331486 0.29110697 0.15102059 -0.21357964 -0.36418647 0.44131783
0.39306355 -0.079707846 0.2845117 0.92314976 0.83963585 -0.64569706 -0.0092687495 -0.2872757

features.9.conv.2.weight_bias f4 [64]
00000000: 0038 913e b173 fc3d e726 a6be 43c9 0dbe
00000010: 690e 95be c238 90be cdda 833e 9e11 9b3d
00000020: d8d3 d6be 7970 7c3d 5707 2d3e ad91 88be
00000030: 5c18 b0bd 161a a0be fdab 983d a092 983e
00000040: 0be6 223e b2b8 9bbe 81a6 a83e ce77 603d
00000050: 8855 903e eda6 ec3e 29e8 893e bafe 60bd
00000060: 508e 573e 8709 b2bd a79d 283e 2ee8 09bd
00000070: 9903 293d a6d7 df3c 77c0 003d efe2 a1bd
00000080: 2a1d fdbc 9c6f dabe b6e6 253e fc99 62be
00000090: c8cd 42be 8e05 d9be 9da8 f03d 9637 b83e
000000a0: 1593 3ebe 9712 74be 6f7d 403e 4cde 473e
000000b0: a6dc 403e aeb5 4c3e 598e a0bd 1cda b03e
000000c0: e96d 65be bdc2 083c 02a4 2c3d ccaa cfbe
000000d0: 3264 99be 620f adbd 0504 dabc b47c 1d3c
000000e0: 887f fe3b 62a2 353d f986 54be d4fd 6fbe
000000f0: eef7 743f f328 aa3e 347b 743e 40d1 44be
0.28363037 0.12326754 -0.32451555 -0.13846307 -0.29112557 -0.28168303 0.2575287 0.075717196
-0.419585 0.0616307 0.16897331 -0.26673642 -0.08598396 -0.31269902 0.07454679 0.29799366
0.15908067 -0.3041435 0.32939532 0.054801755 0.28190255 0.46221104 0.26934937 -0.054930426
0.21050382 -0.086932234 0.1646639 -0.03366869 0.041263197 0.027324509 0.03143355 -0.07904612
-0.030897696 -0.42663276 0.1620129 -0.22129053 -0.19023812 -0.4238705 0.117509104 0.3597991
-0.18610795 -0.23835216 0.18797849 0.19518393 0.1883417 0.1999118 -0.07839651 0.34541404
-0.22405209 0.0083472105 0.042148598 -0.40559995 -0.29959255 -0.084502 -0.026613245 0.009612251
0.0077666678 0.044344313 -0.20754613 -0.23436671 0.9569081 0.33234367 0.23875123 -0.19220448

features.10.conv.2.weight_bias f4 [64]
00000000: 6269 91be d10b 27be 2c21 f93d 51b7 06bf
00000010: 12e2 033f 09f2 05be 7ec9 13be c1fb 7c3e
00000020: 0688 36bf 94d6 143f e224 8abd be3e e9be
00000030: af32 07bf 8fd0 f3be 8f74 d2be a861 87be
00000040: 489e 643e 371b 2bbe 5d27 8f3e ccb6 263e
00000050: ae55 9a3d 834d 423e 3cc1 11bf d9b2 183e
00000060: ee77 01bd a8a6 b8bd 2ff7 943e 93f3 e33d
00000070: f705 24be 63f2 51be a4c9 16bc 7fc3 1dbf
00000080: 2142 31bf 1441 593e a2aa 9a3e debf 233d
00000090: 254c 7abd d255 23be 2ff5 febd b5c8 4b3e
000000a0: d0cd ed3e 64a1 583c 964f 08bb 56ab c73d
000000b0: 9626 83bd fcfc 19be 50f6 81be f443 adbe
000000c0: bcfd 673e d236 a0be 915d 0ebd 3a05 0fbd
000000d0: 98cf b2be 615c 923e 2492 023d 8b2b 97bd
000000e0: f685 4c3e c452 97be ed21 56bf d85e b6be
000000f0: 364c 9d3d 27b4 adbe a553 35bd 1ab6 403e
-0.28400713 -0.16313101 0.1216453 -0.5262347 0.5151683 -0.1308061 -0.14432332 0.24705411
-0.71301305 0.5813992 -0.06745316 -0.4555568 -0.5281171 -0.47620055 -0.41104552 -0.26441693
0.22326005 -0.167096 0.2795972 0.16280669 0.07535873 0.18974881 -0.5693548 0.14911975
-0.031608514 -0.09016162 0.29094836 0.111304425 -0.160179 -0.2050262 -0.009203348 -0.6162643
-0.6924153 0.21216232 0.30208308 0.0399779 -0.061107773 -0.15950707 -0.12449109 0.19900782
0.46446085 0.013222072 -0.002079939 0.097494766 -0.06403844 -0.15037912 -0.25383234 -0.33840907
0.22655386 -0.31291825 -0.0347572 -0.034917094 -0.34924006 0.28586105 0.03187765 -0.07381352
0.19972977 -0.29555333 -0.83645517 -0.35619235 0.07680552 -0.33926508 -0.044269223 0.18819466
