mobilenet_v2_ai_real.onnx (onnx, 251495 bytes, 13 tensors)

classifier.1.bias f4 [2]
000000 17 4b d9 3b 6b 45 66 3c
       0.006631266 0.0140546365

features.0.0.weight_bias f4 [32]
000000 91 f0 b4 bd fd 6d 0c 3f 47 5d ac 3e 26 c6 87 3e
       -0.08834947 0.5485533 0.33664915 0.26518363
000010 90 16 76 3f 8d 62 22 3f d8 a3 fd 3e 38 2a 14 3f
       0.9612818 0.63431627 0.49539065 0.5787692
000020 e3 fe 1b 3f 0a a0 1f 3a f6 94 5c be 1d 1d 78 3f
       0.609358 0.00060892163 -0.21541199 0.96919423
000030 5d e2 dc 3e 20 ab bc be a0 6d 0f b8 ea 27 d0 3b
       0.4314145 -0.36849308 -3.4195953e-05 0.0063524144
000040 d6 0b 2a bd 19 ef 97 bc df ae b4 3e 7b 78 f6 3d
       -0.041515194 -0.018546628 0.35289666 0.120346986
000050 91 85 9e be 29 17 fe 3e 05 8c 83 3e 06 82 7b bc
       -0.30961278 0.49627045 0.25692764 -0.015350824
000060 22 b4 01 bf ce 35 01 3f 34 00 a3 be 99 bb 18 3f
       -0.50665486 0.50472724 -0.31836092 0.5966125
000070 38 8f 04 be 35 3c b0 bd a0 d3 aa 3e d1 a7 93 3e
       -0.12945259 -0.086052336 0.33364582 0.2883897

features.1.conv.0.0.weight_bias f4 [32]
000000 39 3b 58 bc b0 41 7b 3f 70 f2 9f 3d 0c a0 d4 3e
       -0.0131977135 0.98147106 0.07809913 0.41528356
000010 6a 71 83 3e c8 97 51 3f a6 d5 6c 3f 71 cc e5 3e
       0.25672466 0.81872225 0.925135 0.4488254
000020 62 c4 60 40 c9 f0 98 bb 21 4a b4 3e bf 7a 95 3e
       3.5119863 -0.0046673757 0.35212806 0.2919521
000030 c6 49 5b 3f 08 97 c8 be e4 c3 b9 bb e0 17 b5 bb
       0.85659444 -0.39177728 -0.005669104 -0.0055265278
000040 e3 95 0d 3c 5c 7a 5f 3c e9 be c8 3d 76 04 a3 3d
       0.008641693 0.013640013 0.09802038 0.07959835
000050 fe e1 93 be d5 6d c9 3f cf c4 67 3f b2 38 98 3a
       -0.28883356 1.5736643 0.9053468 0.0011613576
000060 30 be 43 3f 48 30 81 be dc 6c bb be 8c 0b 6a 3f
       0.7646208 -0.25232148 -0.3660649 0.9142387
000070 f5 f1 27 3f 18 04 ac 3e cb 56 80 3f 0e ec 73 be
       0.6560357 0.33596873 1.0026487 -0.23820516

features.1.conv.1.weight_bias f4 [16]
000000 e1 da 07 c0 d8 6b d4 3e af 68 96 bf 89 c1 81 3f
       -2.1227343 0.41488528 -1.1750697 1.0137187
000010 b2 c7 07 be 51 d0 ec be a0 dc 21 bf 4c 9d dc bf
       -0.13259771 -0.46252683 -0.6322727 -1.7235503
000020 82 05 48 bf 82 62 d2 bf 87 d3 cc 3f 68 0d dc be
       -0.78133404 -1.6436312 1.6002053 -0.42978978
000030 1a e2 37 bf ac b0 1b be c1 f4 d6 3f d2 c8 a5 3f
       -0.7182938 -0.15204114 1.6793443 1.295191

features.2.conv.2.weight_bias f4 [24]
000000 04 31 96 bf 55 9b 01 3f ee 77 32 bf b5 5f 77 be
       -1.1733708 0.5062764 -0.6971425 -0.24157603
000010 bb 10 f4 bd b5 bb 33 bf 28 fc d4 be eb c9 45 3e
       -0.119172536 -0.70208293 -0.4159863 0.19315307
000020 39 72 6b be 0c e4 9b 3b c3 c1 cc 3c d9 81 c8 3e
       -0.22992791 0.00475741 0.024994737 0.39161566
000030 d5 75 f7 3d 33 f3 da 3f ea 0f a8 3f c8 04 45 3f
       0.120830216 1.7105469 1.3129857 0.7696042
000040 02 52 69 3e 1e fa 5d be 4b 35 f6 be 1c e7 08 3e
       0.2278519 -0.21677443 -0.48087534 0.13369411
000050 c9 8e b7 3e d8 1c 94 3e db 0e 0e 3e f7 d6 d2 3d
       0.35851124 0.28928256 0.13872854 0.102949075

features.3.conv.2.weight_bias f4 [24]
000000 e8 71 b1 bf 6f cf 89 bf d9 0f 05 3d 39 58 3d be
       -1.3862886 -1.0766429 0.032485817 -0.18490686
000010 08 92 a7 bf f8 44 85 3f fd 35 4f 3f f2 f1 c8 3d
       -1.309144 1.0411673 0.80941755 0.098117724
000020 7e 6e 87 3d a6 f3 ee bd b4 87 0b c0 e3 ee 1c bf
       0.066128716 -0.11667566 -2.1801577 -0.6130201
000030 39 29 21 3f 88 27 96 bf 02 e1 2e 3e f2 92 bc be
       0.62953526 -1.1730814 0.17078021 -0.3683086
000040 a8 f7 bd 3e 73 f5 0b bf 81 57 07 bf 2f 14 c2 3e
       0.3710301 -0.546714 -0.52867895 0.37906024
000050 99 13 74 3f 40 cf 68 3f 14 a5 02 c0 58 85 a5 3f
       0.95342404 0.9094124 -2.0413256 1.2931318

features.4.conv.2.weight_bias f4 [32]
000000 a7 3a 60 3f a2 1d 10 3f ff 47 22 bf cb a7 34 3f
       0.87589496 0.56295216 -0.6339111 0.7056853
000010 8f 5c 47 3e ab 4d b7 bf 21 f6 95 be 72 9c 42 be
       0.19468902 -1.4320577 -0.29289344 -0.19004992
000020 c6 36 a5 3d 83 31 e6 bf 19 12 36 3f c2 6a ad 3f
       0.08067088 -1.798386 0.71121365 1.3548205
000030 55 dc 23 3f 08 88 4d 3f 1f 64 1d 3d 76 0e 04 bf
       0.64008075 0.8028569 0.03842556 -0.51584566
000040 dd 38 18 3f 04 ea 8c bd 2e a7 0c 3f 73 d3 9c be
       0.59461766 -0.068805724 0.54942596 -0.30630073
000050 4e 5c 2e be 70 b6 c7 3e 3b 8b 1f bf d2 d0 bc 3e
       -0.17027399 0.39006376 -0.62321824 0.36878067
000060 af 41 40 bf a8 a5 80 3f 2d 97 50 be 08 b8 94 bf
       -0.75100225 1.0050554 -0.20370169 -1.1618662
000070 e2 c9 93 3e b0 1d 6e bf 5f 62 29 bf 01 31 03 be
       0.28864962 -0.9301405 -0.6616573 -0.12811662

features.5.conv.2.weight_bias f4 [32]
000000 f2 07 da 3d ba 7f 88 3e b6 94 f1 be ab 7e 1e 3f
       0.10646047 0.26659948 -0.4718377 0.6191203
000010 22 1c 51 be 55 de 14 bd 76 d6 26 3e e2 35 bd be
       -0.20420888 -0.036344845 0.16292748 -0.36955172
000020 eb 5b 0a bf 3d aa e8 3d 9b 9d b5 3d 48 8b 6a be
       -0.54046506 0.113605954 0.088679515 -0.22904694
000030 3f e7 cd be 4b b3 0d bf 08 57 24 bc 60 75 b9 be
       -0.4021549 -0.55351704 -0.0100305155 -0.36222363
000040 2a f2 e0 3e dc ec 33 be 00 a3 03 3e 78 a0 d0 3e
       0.43934757 -0.17570823 0.12855148 0.40747428
000050 d4 11 39 3f 59 2e d1 be 12 e8 5d 3e 0a 9d 12 bf
       0.7229283 -0.40855673 0.21670559 -0.5727087
000060 cb e3 e1 3d 1d e9 36 be 12 65 e4 be bb ae f6 3e
       0.11029776 -0.17862363 -0.4460836 0.48180184
000070 ce f5 0b 3f 32 a2 30 be e6 b6 75 be f2 5b 31 3e
       0.54671943 -0.17249373 -0.23995551 0.1732023

features.6.conv.2.weight_bias f4 [32]
000000 93 c4 bd be 3e ab e2 3d c8 32 92 be e8 16 52 3e
       -0.37064037 0.11067818 -0.28554368 0.2051655
000010 24 14 90 3e 8e 2e 9a 3e ef fd c9 be 77 18 3c 3e
       0.28140366 0.30113643 -0.39451548 0.18368708
000020 62 ab fb 3b 8d c6 0b 3f 22 5f 7a 3e ba d2 e6 3d
       0.0076803425 0.5459984 0.24450353 0.11270662
000030 fe 99 3c 3e 4c ee 82 3e eb 29 82 3e a4 bf 10 bf
       0.18418118 0.2557243 0.25422606 -0.5654242
000040 65 a9 0d bf 75 ea 0f bf 80 69 b9 3d 51 91 40 3f
       -0.553366 -0.5621713 0.09053326 0.75221735
000050 7c da 8b 3e 99 29 1f 3e 90 cb 62 bd ba 09 78 3e
       0.27315128 0.15543212 -0.055369914 0.2422246
000060 f4 12 6b bd 01 bd 2b bf 58 9d 94 be f1 43 c9 3e
       -0.057391122 -0.6708527 -0.29026294 0.39309648
000070 c1 1a a0 be f6 11 ec be fc f5 04 3f b8 27 70 be
       -0.31270412 -0.46107453 0.5193784 -0.23452652

features.7.conv.2.weight_bias f4 [64]
000000 70 19 02 bf bb 7f 50 be 91 69 37 bf 04 ed f5 bc
       -0.50820065 -0.20361225 -0.71645457 -0.030020244
000010 07 e9 19 bf 68 44 d0 bd 30 d8 a3 3d 67 5f 74 bf
       -0.60121197 -0.101692975 0.08000219 -0.9545807
000020 d4 ad 5a bd 53 ea f8 3f 66 08 b9 bf a6 1c 83 3f
       -0.05338843 1.944651 -1.4455688 1.0243118
000030 3d dc ae 3c d7 1b 00 bf 43 46 c1 3e 69 4e 16 3e
       0.021345252 -0.5004248 0.37748918 0.14678349
000040 c7 01 77 be 96 25 a5 be cb cc ec bd f7 3d a8 be
       -0.24121772 -0.32255238 -0.11562499 -0.32859775
000050 08 e5 22 bd 86 fa 60 bf 9e 23 28 3f 97 32 e2 3e
       -0.039769202 -0.8788227 0.6567935 0.44179222
000060 ce 5f f3 3d aa 40 1e be d9 07 4d 3f 06 2d 43 bf
       0.11883508 -0.15454355 0.800901 -0.76240575
000070 46 e7 36 3e 5f 6a 7d bf e0 f6 2d 3e c2 0a 8f 3e
       0.17861661 -0.98990434 0.16988707 0.27937895
000080 70 31 87 3f c3 57 d6 3e c5 53 9c 3e 0e bf 22 be
       1.0561962 0.41863832 0.3053266 -0.15893194
000090 ba 02 13 be 7c 66 94 3a 09 05 90 bf 08 84 1f be
       -0.14356509 0.0011322047 -1.1251537 -0.1557771
0000a0 77 6b 87 3f f9 d2 54 3f 8c e9 32 bf d7 bd 5a bf
       1.0579671 0.8313442 -0.69887614 -0.8544592
0000b0 13 bb 32 bf 5b a9 71 3d c5 88 2a 3e ba b5 cd be
       -0.698167 0.0589994 0.16653736 -0.4017771
0000c0 10 a6 41 3f 4c e6 d3 3e 48 1f 00 3f 1e 04 2e 3e
       0.75644016 0.4138664 0.5004773 0.16993758
0000d0 a9 99 a6 3f f4 a6 05 3f 87 c1 55 3f bf 65 37 bc
       1.3015643 0.52207875 0.83498424 -0.011193692
0000e0 4b e9 63 3f 14 2e 89 bf bb e5 73 3e ac 51 87 be
       0.8902785 -1.0717187 0.23818104 -0.26429498
0000f0 29 7d 7c be 5e 3d 23 3f 13 29 89 3f 75 39 34 be
       -0.2465712 0.63765514 1.071566 -0.17600043

features.8.conv.2.weight_bias f4 [64]
000000 12 e6 c2 be 96 45 41 be 3d 06 b8 3d ff ce 7e 3e
       -0.38066155 -0.18874201 0.08985565 0.2488365
000010 6d 02 22 be 17 c3 0f 3d f8 b0 18 bd a2 45 0e bf
       -0.15821238 0.03509816 -0.037278146 -0.55575
000020 77 38 bc be c0 a4 0d ba c8 80 84 be e0 a6 36 3e
       -0.3676183 -0.0005403273 -0.25879502 0.17837095
000030 34 6f be 39 ab 1a 02 be 97 1c 7f 3d 77 d5 8a 3e
       0.00036322477 -0.12705486 0.062283125 0.27115986
000040 27 17 78 3e 20 eb fd 3d e1 70 a0 3e f7 f1 96 be
       0.24227582 0.12398362 0.3133612 -0.2948148
000050 70 90 4e be 49 ee 05 bf 81 8a 2c 3c 32 02 14 3f
       -0.20172286 -0.5231672 0.010531069 0.5781585
000060 94 21 ef 3d 9b 52 8e be 9a b9 89 3f 89 af 3d be
       0.116763264 -0.27797398 1.0759766 -0.18523993
000070 61 f7 8f 3e 93 1b d1 3d 8b 2d c3 3e 98 80 3b 3f
       0.28118423 0.102103375 0.38120684 0.73243093
000080 8d 6b 86 bd c7 f9 39 3e f8 0c 8e bf bd 1d 0c bf
       -0.065634824 0.18161689 -1.1097708 -0.54732877
000090 d7 45 0c 3f da a1 0a bd 26 9f 2b 3e eb d8 87 be
       0.5479407 -0.03384576 0.16759929 -0.26532683
0000a0 eb 67 f0 bd 16 14 99 be 61 61 b3 3e 16 6d f6 bd
       -0.11738571 -0.29898137 0.35035232 -0.12032525
0000b0 6d c7 0c 3f 71 aa 6d 3e c4 c7 8b 3b e3 06 47 3f
       0.549918 0.2320955 0.0042657573 0.77744883
0000c0 c8 bb 51 3e 58 cb 49 3e 6f fb a1 bd 36 b7 92 3e
       0.20481789 0.19706476 -0.07909285 0.28655404
0000d0 7c 42 12 3e 6c 12 20 be b4 e0 c9 be 6e 80 e1 3e
       0.14283174 -0.15632027 -0.39429247 0.44043297
0000e0 9c 4d ef 3e c0 65 9a bd 62 85 ca 3e fd f1 83 3f
       0.467389 -0.075389385 0.39554888 1.0308224
0000f0 2f 09 4d 3f 91 43 2b bf 62 32 8f 3d d6 ee 99 be
       0.8009214 -0.66899973 0.06992032 -0.3006503

features.9.conv.2.weight_bias f4 [64]
000000 08 dd 8e 3e 43 2a 18 3e 1b 39 9a be 54 88 12 be
       0.27903008 0.14859872 -0.30121693 -0.14309818
000010 a6 df 83 be d4 c6 98 be 5c a6 89 3e b1 b2 0c 3e
       -0.25756568 -0.29839194 0.26884735 0.1374004
000020 38 3c df be 07 f9 85 3d 29 b1 11 3e b2 ba 82 be
       -0.4360063 0.06541639 0.14227737 -0.25533062
000030 71 cd 01 be 86 5e 9d be 08 dd 97 3d 26 8d 91 3e
       -0.12676026 -0.30736178 0.07415205 0.28428
000040 87 cb 17 3e cc 42 9a be d0 11 b4 3e 6c 42 e4 3c
       0.14823733 -0.30129087 0.3516984 0.027863704
000050 ad 94 a4 3e ac 9d e7 3e 8e f1 91 3e 7f 5b 11 bc
       0.3214468 0.45237482 0.28504604 -0.008871912
000060 f3 de 47 3e 44 95 0e be a7 2b 03 3e 44 bf 9f bc
       0.19518642 -0.13924128 0.12809621 -0.019500382
000070 94 ee d4 3d eb d3 f2 3c 96 c1 02 bb cc 1a c1 bd
       0.10397068 0.029642066 -0.0019951812 -0.09428939
000080 c5 b4 94 bd 19 d9 bf be 43 1b 30 3e 4d 29 5a be
       -0.072610416 -0.3747032 0.171979 -0.21304817
000090 6c 90 4a be 66 4b d3 be 25 48 f4 3d 5d dd af 3e
       -0.19781655 -0.41268462 0.11927823 0.34348574
0000a0 f4 91 34 be 05 4e 7b be aa 85 4f 3e 47 e6 5f 3e
       -0.17633802 -0.24541481 0.20265833 0.21865188
0000b0 86 04 3c 3e 9e 97 5d 3e f7 b6 8e bd f8 60 a4 3e
       0.183611 0.21639869 -0.069684915 0.3210523
0000c0 1a e1 5e be e9 c3 e5 bb af 3b 6f 3d b2 d9 d7 be
       -0.21765557 -0.0070118797 0.058406528 -0.42158276
0000d0 eb 58 9d be 34 50 fc bd 10 da 7c bd 2e e1 b7 3b
       -0.30731902 -0.12319985 -0.061731398 0.0056115603
0000e0 86 4e 47 3c 69 b7 6b 3d a6 d2 43 be 33 e9 38 be
       0.012164718 0.05754796 -0.19123325 -0.18057708
0000f0 2e 13 6e 3f 2f 32 c2 3e b8 0b 76 3e f4 19 4f be
       0.92998016 0.37928912 0.24027908 -0.20224744

features.10.conv.2.weight_bias f4 [64]
000000 40 3a 8f be 2c 06 41 be fd d1 3c 3e 7c 25 fe be
       -0.2797413 -0.1885001 0.18439479 -0.49637973
000010 7b 78 07 3f 6f d7 17 be ab ea f4 bd 9d d7 74 3e
       0.52918214 -0.14828275 -0.11958822 0.23910375
000020 dd 7a 1f bf 4d 3d 15 3f 40 4a 96 bd 24 82 06 bf
       -0.6229685 0.5829666 -0.07338381 -0.5254233
000030 86 97 06 bf 26 4c e4 be 91 28 c2 be a7 2d 79 be
       -0.52574956 -0.44589347 -0.37921575 -0.24333821
000040 93 af 5b 3e 9b 56 01 be f8 2b 88 3e 47 72 2d 3e
       0.21453695 -0.12630694 0.26596045 0.16938125
000050 90 8a c8 3d a3 93 33 3e 1b 17 12 bf 12 42 dd 3d
       0.09792054 0.17536788 -0.57066506 0.108036175
000060 80 60 cc 3a 42 ef 25 be 1c 22 80 3e bc bc 16 3e
       0.0015592724 -0.16204551 0.25026023 0.14720434
000070 24 14 22 be 21 b6 6c be f8 78 34 bd 2e 7e 0c bf
       -0.15827996 -0.23116352 -0.044060677 -0.54880035
000080 f8 9f 42 bf db 8a 8a 3e d5 21 a0 3e b3 f4 29 3d
       -0.7602534 0.27059063 0.31275812 0.04149313
000090 85 e1 dc bd e9 35 14 be 15 25 eb bd 95 39 3f 3e
       -0.10785202 -0.1447369 -0.11481682 0.1867431
0000a0 8b da de 3e 70 50 db 3b 2e 13 ed 3c 4e a7 a8 3c
       0.4352611 0.0066929385 0.02893981 0.02058759
0000b0 08 22 b7 bd 3e 94 fb bd 57 8b 72 be 48 a9 86 be
       -0.08942038 -0.12284134 -0.23685966 -0.26301026
0000c0 da da 56 3e 5b 23 a6 be fd 13 af bc 41 6a 8a bd
       0.20981923 -0.3244885 -0.021371836 -0.067585476
0000d0 cb d5 c8 be e7 49 7b 3e e0 d3 84 3d 9c c0 8b bd
       -0.3922561 0.2453991 0.064857244 -0.06823847
0000e0 f3 d4 2d 3e 02 43 9a be a0 6a 50 bf f0 ec b2 be
       0.16975765 -0.30129248 -0.81412697 -0.34946394
0000f0 70 30 80 3d c3 c8 c2 be 90 28 9d bc c5 19 11 3e
       0.06259239 -0.38043794 -0.01918438 0.14169987
