mobilenet_v2_ai_real.onnx (onnx, 252454 bytes, 12 tensors)

features.0.0.weight_bias f4 [32]
000000 5a 1f b0 bd 1d 77 0f 3f 15 a7 b2 3e 17 df 90 3e
       -0.0859973 0.5604113 0.34893098 0.28295204
000010 ac be 77 3f 19 0d 27 3f 06 7a fd 3e 8a a6 11 3f
       0.9677532 0.6525436 0.4950716 0.56894743
000020 33 23 1e 3f b4 40 e8 38 e5 02 ac be 95 4d 75 3f
       0.6177246 0.00011074674 -0.33595958 0.95821506
000030 7b 62 e4 3e c3 10 be be de 63 b0 b9 8d 86 cf 3b
       0.44606385 -0.37122163 -0.00033643743 0.0063331784
000040 1f 08 2a bd b1 6c 94 bc 90 97 ae 3e 00 cc cd 3d
       -0.04151165 -0.018118234 0.34100008 0.100486755
000050 b4 7a 87 be e1 c2 fe 3e aa df d3 3e 2f 66 7c bc
       -0.26460803 0.49758056 0.4138158 -0.015405222
000060 39 8a f9 be 92 c5 02 3f 20 e0 9a be 39 a8 23 3f
       -0.48738268 0.5108272 -0.3024912 0.6392856
000070 26 84 f9 bd 28 1d 8e bd 3b 26 c9 3e 6b 89 8a 3e
       -0.121834084 -0.06939155 0.3928698 0.27057967

features.1.conv.0.0.weight_bias f4 [32]
000000 f0 e8 42 bc bd db 6e 3f 00 38 1d 3c e1 21 d6 3e
       -0.011896357 0.93304044 0.009595871 0.41822723
000010 29 ae 85 3e ae 6d 56 3f 4c a3 5f 3f 40 83 d1 3e
       0.26109436 0.8376111 0.87358546 0.40920448
000020 ab d0 6e 40 89 fe 98 bb 92 b3 aa 3e 21 21 a7 3e
       3.731486 -0.004669015 0.33340126 0.32642463
000030 fe fb 4e 3f 0b 1d d3 be b4 d5 b9 bb 0e 26 b5 bb
       0.8085326 -0.41233096 -0.0056712274 -0.005528218
000040 bc 7c 08 3c 43 f6 5e 3c f0 f1 00 3c 8d b0 9f 3d
       0.00833052 0.013608518 0.007870182 0.07797346
000050 cd 46 93 be 04 10 c8 3f 48 05 61 3f 54 80 a0 3a
       -0.28764954 1.5629888 0.87898684 0.0012245276
000060 5b 6e 42 3f 34 66 8f be 0e 23 bb be 8a 2c 61 3f
       0.7594964 -0.28007662 -0.36550182 0.87958586
000070 e2 78 2c 3f 14 84 a4 3e ad 62 78 3f 2e d9 4f be
       0.6737195 0.32132018 0.9702557 -0.20297691

features.1.conv.1.weight_bias f4 [16]
000000 f0 0a 09 c0 40 cf da 3e 0b 1b a4 bf 2e 82 84 3f
       -2.1412926 0.42736244 -1.2820753 1.0352228
000010 ff 48 cf bd 09 cf ec be bd 46 29 bf 89 cd e5 bf
       -0.10121345 -0.46251705 -0.66123563 -1.7953349
000020 90 bd 56 bf ab 0d d4 bf 89 89 ce 3f 6a 79 da be
       -0.83883 -1.6566671 1.6135722 -0.42670757
000030 5b 16 38 bf d8 24 2f be 55 8d d1 3f 57 74 b5 3f
       -0.7190911 -0.17103899 1.6371256 1.4176129

features.2.conv.2.weight_bias f4 [24]
000000 1f 3d 95 bf cb 32 02 3f f4 64 33 bf d7 63 45 be
       -1.1659278 0.50858754 -0.7007592 -0.19276367
000010 45 73 ca bd d6 fe 3a bf de 69 d9 be e7 04 3e 3e
       -0.09885267 -0.730451 -0.42463583 0.18556558
000020 86 7f 48 be e6 3e 98 3b d5 c2 c2 3c 12 3c d0 3e
       -0.19579896 0.00464617 0.023774544 0.4067083
000030 f2 f6 0c 3e d4 b5 e6 3f 40 1f a7 3f 55 13 52 3f
       0.13766077 1.802424 1.3056412 0.8206075
000040 b6 48 4c 3e 4d 93 46 be ce 50 f8 be 02 39 06 3e
       0.19949612 -0.19392128 -0.4849915 0.13107684
000050 3c bb b0 3e f5 d9 8f 3e 73 22 19 3e de 2a 03 3e
       0.34517848 0.28095976 0.14954548 0.12809321

features.3.conv.2.weight_bias f4 [24]
000000 70 ab b3 bf f0 2c 86 bf 7c a4 b4 3d 33 be 3c be
       -1.4036694 -1.0482464 0.088204354 -0.1843193
000010 bf 22 a0 bf 84 06 87 3f 7f b0 4b 3f cf 10 b7 3d
       -1.2510604 1.0548863 0.79566187 0.08938753
000020 ec 65 c9 3d e2 41 a7 bd d1 02 0f c0 a1 ac 21 bf
       0.09833893 -0.08166863 -2.234547 -0.63154036
000030 cd 4b 1f 3f 60 6a 99 bf 45 b4 18 3e 81 eb af be
       0.6222504 -1.1985588 0.14912517 -0.34359363
000040 3d 16 bf 3e b1 42 0b bf 37 e0 02 bf dc 56 b0 3e
       0.37321654 -0.5439864 -0.51123375 0.34441268
000050 b4 e0 70 3f dc a6 58 3f 52 3b 02 c0 bb 6a a4 3f
       0.9409287 0.8462961 -2.0348706 1.2845072

features.4.conv.2.weight_bias f4 [32]
000000 d1 da 5a 3f 0a 4e 0b 3f ab 07 16 bf 01 88 38 3f
       0.8549014 0.54415953 -0.5860545 0.72082525
000010 d6 53 01 3e 19 b1 c1 bf a7 ac 83 be 21 73 48 be
       0.12629637 -1.5132171 -0.2571766 -0.19575168
000020 03 a5 0c 3d c8 fc d7 bf 26 63 3c 3f a9 cc ae 3f
       0.034337055 -1.6874018 0.7358879 1.3656207
000030 e7 07 20 3f 4f 3b 5e 3f b9 45 73 3d 1d a4 08 bf
       0.6251206 0.8680925 0.059392665 -0.53375417
000040 d4 5b 2e 3f 3f 43 cd bd ce 37 10 3f aa 02 98 be
       0.6810887 -0.10022592 0.5633515 -0.29689533
000050 4b c9 25 be 6c 11 d1 3e df be 08 bf 6c bd c8 3e
       -0.16190068 0.40833604 -0.53416246 0.39207017
000060 2c a9 45 bf fc 90 7f 3f 3b d1 32 be 73 dd 91 bf
       -0.7721126 0.99830604 -0.17462628 -1.1395706
000070 3f 88 8e 3e 3a ca 74 bf ae f2 23 bf b0 3c 31 be
       0.27838323 -0.95621073 -0.64042175 -0.17308307

features.5.conv.2.weight_bias f4 [32]
000000 d0 0e 90 3d 3d 6d 60 3e 5e 39 d0 be a1 69 2c 3f
       0.07034075 0.21916671 -0.40668768 0.67348677
000010 a3 f4 75 be b1 d1 46 bd f8 e0 23 3e 31 42 be be
       -0.24019103 -0.04853982 0.16003788 -0.37159875
000020 0d 5b 04 bf f5 a0 c5 3d 52 7d d7 3d 92 ab 49 be
       -0.5170143 0.09649841 0.1052195 -0.19694355
000030 cb 09 d7 be c9 bb 06 bf 3c 8f 94 3c 3c dc bd be
       -0.4199966 -0.5263029 0.018134706 -0.37082088
000040 13 82 c4 3e 53 05 3c be 68 37 11 3e 77 c2 f1 3e
       0.3838049 -0.18361406 0.14181292 0.47218677
000050 82 1f 44 3f 30 a5 b6 be 49 2d 62 3e b7 44 f7 be
       0.7661058 -0.35672903 0.22087587 -0.48294613
000060 06 82 c8 3d f3 02 22 be 8f b9 e7 be 47 48 01 3f
       0.09790425 -0.15821438 -0.45258757 0.5050091
000070 db 99 05 3f 1b 3b 28 be 9b ec 6b be 46 93 2d 3e
       0.5218789 -0.16428797 -0.23039477 0.16950712

features.6.conv.2.weight_bias f4 [32]
000000 05 db cb be b1 37 6a 3d 98 d2 84 be 58 77 63 3e
       -0.39815536 0.057182018 -0.2594192 0.22213495
000010 56 9e 86 3e e5 4e 95 3e 93 90 c6 be b5 23 5c 3e
       0.26292676 0.29161754 -0.38782176 0.21497996
000020 81 18 ce bc 87 2c 19 3f 0e 5f 6c 3e f3 ac 16 3e
       -0.025158169 0.5983357 0.23083135 0.14714412
000030 c4 4a 2d 3e b7 bb 76 3e 02 f3 8c 3e d6 1d 0e bf
       0.16923052 0.24095045 0.2752915 -0.55514276
000040 03 8d 1c bf 7b 96 02 bf 94 a5 b6 3d f0 35 4b 3f
       -0.61152667 -0.51010865 0.089183 0.7937918
000050 75 55 a2 3e cf 63 4a 3e 8b a7 91 bd fc 3c 70 3e
       0.31705824 0.19764636 -0.071120344 0.23460764
000060 e1 81 ad bd 87 8a 1e bf 9b a3 be be cf 54 ca 3e
       -0.08472038 -0.61930126 -0.37234196 0.3951783
000070 ca a2 9d be 5c 4a fd be cd 5e f8 3e c5 9b a7 be
       -0.3078826 -0.49470794 0.48509827 -0.3273603

features.7.conv.2.weight_bias f4 [64]
000000 36 a5 f0 be e0 c2 11 be ff cc 51 bf 4e e2 8c bd
       -0.47001046 -0.14234495 -0.81953424 -0.06879102
000010 6b b8 18 bf 6b 15 c4 bd 83 6b f3 3d e9 bf 5d bf
       -0.596564 -0.09574398 0.118857406 -0.86620957
000020 41 81 38 bd d9 24 f2 3f 98 76 ab bf 1b 23 8f 3f
       -0.04504514 1.8917495 -1.3395567 1.1182588
000030 c9 f7 85 3d 17 f7 fa be 89 b8 cf 3e 30 3e ee 3d
       0.06541402 -0.4901664 0.40570477 0.11632955
000040 5f 6a 5b be 5c 83 9b be 40 90 1b be ab b8 95 be
       -0.21427296 -0.30373657 -0.15191746 -0.29242453
000050 ff 9c 45 bd 01 ae 6c bf 62 8e 36 3f 97 96 df 3e
       -0.048245426 -0.9245301 0.7131101 0.43669578
000060 ff 6e ff 3d ea c9 1f be e7 81 42 3f ed d7 41 bf
       0.12472343 -0.15604368 0.75979465 -0.757201
000070 18 80 42 3e ca b5 83 bf 59 51 1a 3e 78 e5 89 3e
       0.18994176 -1.0289853 0.15070094 0.26932883
000080 5f bb 8d 3f 8d 94 ec 3e 76 35 98 3e 7b ea c3 bd
       1.1072806 0.46207085 0.29728287 -0.09566208
000090 1c bf cc bd 83 93 0f bd a0 e5 91 bf f0 54 19 be
       -0.09997389 -0.035052788 -1.1398201 -0.14973807
0000a0 82 e8 8f 3f 45 33 54 3f 8d 13 37 bf c3 1b 55 bf
       1.1242831 0.8289073 -0.7151421 -0.83245486
0000b0 0e 9f 3c bf 7d a6 a7 bc 14 65 50 3e 8a 91 c7 be
       -0.736802 -0.02046513 0.20351058 -0.38978225
0000c0 24 45 3a 3f 6b 85 c4 3e 44 e3 0d 3f 96 9b 3d 3e
       0.7276175 0.3838304 0.55424905 0.18516383
0000d0 81 ac 9f 3f ef cf 08 3f 69 2b 68 3f ff 6d 63 bc
       1.2474519 0.5344228 0.9069124 -0.013881206
0000e0 ca b3 73 3f 19 64 91 bf f9 97 5f 3e fd 80 90 be
       0.9519621 -1.1358672 0.21835317 -0.2822341
0000f0 17 4c 82 be ab 85 09 3f 6b 67 81 3f 8d d5 33 be
       -0.25448677 0.53719586 1.0109686 -0.17561932

features.8.conv.2.weight_bias f4 [64]
000000 d0 7c 9e be 2f a0 20 be 2b 00 b9 3d 84 27 78 3e
       -0.309546 -0.15686105 0.09033235 0.24233824
000010 fb ca 17 be 04 1b 18 3c b2 19 c7 3c bf 2f 01 bf
       -0.14823525 0.009283785 0.024304245 -0.5046348
000020 53 ea 9b be 63 26 f9 3c 83 92 89 be 03 68 06 3e
       -0.30452213 0.030413812 -0.26869592 0.13125615
000030 aa d1 ad 3d 51 53 9e bd a7 27 88 3d 74 be 84 3e
       0.08487256 -0.07730735 0.06648188 0.25926554
000040 cf e2 8a 3e 79 6d 9b 3d 46 28 9f 3e 06 7b 87 be
       0.27126166 0.075892396 0.31085414 -0.26461047
000050 86 18 34 be 93 8c 04 bf 7a 49 01 3c f4 1e f1 3e
       -0.1758748 -0.51777 0.007891053 0.47093928
000060 60 73 10 3e 32 ca 76 be 43 51 78 3f cc a5 21 be
       0.14106512 -0.24100569 0.96998996 -0.15785903
000070 be 1c 30 3e 40 06 e1 3d 94 22 c6 3e 36 5c 2e 3f
       0.17198464 0.1098752 0.38698256 0.6810945
000080 5e 8e e4 bd 53 9b 1a 3e 74 87 92 bf 28 77 ed be
       -0.11159967 0.15098314 -1.1447587 -0.46379972
000090 77 ae 14 3f 79 9e 4c bd 4b 0d 08 3e dc 76 8b be
       0.5807871 -0.04995582 0.13286321 -0.2723912
0000a0 52 29 cd bd 36 49 a9 be 5b 88 8c 3e 1d 26 bd bd
       -0.10017647 -0.33063668 0.2744778 -0.09235785
0000b0 3f 8c 03 3f 95 4a 08 3e 98 78 2a 3c 17 ae 42 3f
       0.51385874 0.13309701 0.010404728 0.7604689
0000c0 94 3d 33 3e 25 82 2c 3e 01 ea bf bd 27 cc 91 3e
       0.17503959 0.16846521 -0.093708046 0.28476068
0000d0 b6 d7 12 3e 62 e2 5e be 34 e1 b0 be 5d f0 d9 3e
       0.143401 -0.21766046 -0.34546816 0.42566195
0000e0 b2 2b c8 3e cc df a7 bd bf 12 89 3e 6a 9b 49 3f
       0.39095837 -0.08196983 0.26772115 0.7875277
0000f0 de c5 51 3f 4c 13 1b bf 96 05 69 b9 40 49 8f be
       0.81942546 -0.6057632 -0.00022222692 -0.27985573

features.9.conv.2.weight_bias f4 [64]
000000 f6 77 97 3e e7 c7 0c 3e ee 28 a8 be 88 6e 19 be
       0.2958371 0.13748132 -0.32843727 -0.1498357
000010 35 f5 93 be 60 71 90 be 07 c5 85 3e 7c ba 9e 3d
       -0.28898016 -0.28211498 0.26126882 0.07750413
000020 77 4b e0 be 50 1c a5 3d 31 f1 25 3e 67 ce 86 be
       -0.43807575 0.08062041 0.16205288 -0.26329347
000030 55 79 d8 bd 92 6d 9c be 11 7b 94 3d ee f3 95 3e
       -0.10570017 -0.30552346 0.072500356 0.29287666
000040 8f 47 23 3e 48 e6 9d be 3a 11 b3 3e fb dd 72 3d
       0.15945266 -0.30839753 0.3497408 0.05929373
000050 6e 44 93 3e c8 4d ee 3e 99 dd 8f 3e a6 3c 37 bd
       0.28763145 0.46543717 0.28098753 -0.044735573
000060 7f 49 5b 3e f9 42 d4 bd 12 a4 28 3e f7 ea aa bc
       0.21414755 -0.103643365 0.16468838 -0.020863993
000070 16 d2 db 3c d9 57 2f 3c 59 8c 4b 3c 89 48 a4 bd
       0.026833575 0.010702097 0.012423598 -0.080216475
000080 d2 45 ed bc aa e6 d6 be 89 f0 22 3e 1b 58 63 be
       -0.028963957 -0.41972858 0.1591207 -0.22201578
000090 0f da 45 be 5e ab db be 24 73 fd 3d d9 97 ab 3e
       -0.19321464 -0.4290418 0.12375477 0.33514288
0000a0 4c f3 2e be 0c 37 74 be 0b 9a 3f 3e 0c de 46 3e
       -0.17084998 -0.23849124 0.18711106 0.19420642
0000b0 6d b3 2d 3e 88 0e 4b 3e 45 38 99 bd a1 04 ac 3e
       0.16962977 0.19829762 -0.07481436 0.33597282
0000c0 b6 a4 64 be 48 83 04 3c 09 f6 3e 3d 5d a7 c9 be
       -0.22328457 0.0080879405 0.046621356 -0.393855
0000d0 a1 4a 99 be cb 24 a3 bd 47 f4 f1 bc 7b da 91 3c
       -0.2993975 -0.07966002 -0.029535426 0.017804375
0000e0 ab c3 58 3c 83 c5 4e 3d 3e a6 4d be 55 d0 74 be
       0.013230245 0.05048133 -0.20082948 -0.23907597
0000f0 a7 7b 71 3f f0 79 bf 3e 52 b9 78 3e bf 1f 3e be
       0.94329304 0.37397718 0.24289444 -0.18566798

features.10.conv.2.weight_bias f4 [64]
000000 b7 7d 8b be ab 90 21 be da ed 02 3e 30 9d 03 bf
       -0.2724435 -0.15777843 0.12786046 -0.51411724
000010 ab 6f 08 3f ff 70 01 be 93 e1 0e be fc 9a 7d 3e
       0.5329539 -0.12640761 -0.13953237 0.24766153
000020 02 0a 3b bf 70 b7 12 3f 90 38 85 bd a1 19 f0 be
       -0.73062146 0.57311153 -0.06504929 -0.46894553
000030 a3 3e 05 bf 3d b1 f5 be 0e 37 ce be 54 b4 86 be
       -0.520487 -0.47986785 -0.40276378 -0.26309454
000040 6a 00 63 3e c7 3b 2a be b8 2f 8f 3e c9 2c 2b 3e
       0.22168127 -0.16624366 0.27966094 0.16716303
000050 e0 eb 9d 3d cc 85 42 3e 4a 36 12 bf 17 0b 1c 3e
       0.07711005 0.18996352 -0.5711409 0.15238605
000060 da e1 d4 bc b2 1e b5 bd 2d a3 96 3e ca 7a e5 3d
       -0.0259866 -0.08843745 0.29421368 0.11205061
000070 5c 68 28 be a6 7a 69 be 36 b4 fb bc 1c ae 1a bf
       -0.1644606 -0.22800693 -0.03072558 -0.6042192
000080 76 9b 31 bf b3 9b 6a 3e b8 f3 9b 3e 04 f0 58 3d
       -0.6937784 0.22910957 0.3045938 0.05296327
000090 63 3d 89 bd c7 4c 14 be 2f 11 02 be a5 2f 46 3e
       -0.06701162 -0.14482413 -0.12701868 0.19354112
0000a0 89 92 e8 3e d6 96 02 3c 5a d4 f5 3a 03 1b c6 3d
       0.45424297 0.007970532 0.0018755302 0.09673121
0000b0 26 aa b2 bd a1 c7 17 be e0 b3 7c be 7d fd b0 be
       -0.087238595 -0.14822246 -0.24677992 -0.34568396
0000c0 3f 36 6a 3e 42 db a3 be b4 fb 0b bd 01 a4 e5 bc
       0.22872256 -0.32003218 -0.03417559 -0.028032305
0000d0 ae c0 b3 be 1b d9 97 3e 17 d7 e9 3c 8d ce 91 bd
       -0.3510794 0.29657826 0.028544946 -0.071194746
0000e0 e9 bb 4b 3e e6 df 9a be 24 b7 51 bf d4 39 aa be
       0.19895901 -0.30248946 -0.81920075 -0.33247244
0000f0 ef 10 60 3d 7f 4f a0 be c0 db 2f bd 10 1c 32 3e
       0.05470365 -0.3131065 -0.04293418 0.17393517
